model.onnx (onnx, 23827 bytes, 9 tensors)

conv1.bias f4 [24]
000000 78 4f 01 be 32 98 95 be 6b 90 f3 bd 40 b9 d2 be
       -0.12627971 -0.29217678 -0.1189278 -0.4115696
000010 49 35 ad be a1 7b 48 be 14 34 1a be a6 da d4 be
       -0.33829716 -0.1957841 -0.15058929 -0.41573066
000020 58 6a 5a 3e 53 8c 50 be ac cd ce 3e fc 5f 03 3d
       0.2132963 -0.2036603 0.4039129 0.03207396
000030 aa 6f ff be 5b 41 b7 3e bf c1 1d be 7d 9d 9e be
       -0.4988988 0.3579205 -0.1540594 -0.3097953
000040 53 05 8c be a8 3a 29 bf 37 31 c5 3c 25 a1 80 3d
       -0.27347812 -0.6610513 0.024071319 0.06280736
000050 b8 d5 82 3e fa e8 bb be 28 05 a0 3e b3 80 69 be
       0.2555368 -0.36701185 0.31253934 -0.22803001

conv2.bias f4 [36]
000000 97 84 df bc ef 46 1c bd b1 d3 91 bd 57 19 97 3d
       -0.027284903 -0.038153585 -0.07120455 0.0737788
000010 66 5f 05 3e bc 72 a5 3c 27 37 ba 3d 0d bd be 3c
       0.13024673 0.020196311 0.09092551 0.023283506
000020 4a 3a c4 bc e6 ab df bc ae 39 1d bd b0 0b 41 bd
       -0.023953576 -0.027303647 -0.038385086 -0.047130287
000030 49 56 72 bd 70 1a 1e be fb a4 2b bd 0f dc b6 bd
       -0.05916432 -0.15439773 -0.041905385 -0.089286916
000040 d8 ad fe 39 1f 34 21 be c4 f1 a9 3d 56 88 f6 3d
       0.0004857618 -0.15742539 0.08298066 0.12037723
000050 ce 2c 3b bd 8d 16 87 3d 23 eb a7 3d 81 95 5a be
       -0.045697026 0.06596098 0.08199146 -0.21346094
000060 54 26 51 be f6 e0 a8 3d 0a 7b f2 3c 13 14 f0 bd
       -0.20424777 0.08246033 0.029599685 -0.11722579
000070 4b f7 0f be b7 28 ba 3d d8 7e 03 3e a7 5c d1 bd
       -0.14059179 0.09089797 0.12841356 -0.1022275
000080 9d 82 ce bc 99 ea 99 be 2e 47 a1 bd c0 8d ee 3d
       -0.025208766 -0.30061796 -0.078749046 0.116481304

conv3.bias f4 [48]
000000 50 60 df 3d 18 92 ca 3d 98 5b f5 3c f3 fe 61 3d
       0.10907042 0.098911464 0.029950902 0.05517478
000010 ea 88 5d bd 9a f5 a5 3c b1 bf b6 be 88 5e 8b be
       -0.05408565 0.020258714 -0.35693124 -0.2722056
000020 4c ac 9f bd a6 49 50 bd 14 a2 aa 3d d1 93 09 3c
       -0.07796535 -0.050851487 0.08331695 0.008397059
000030 9d b7 97 bc 31 a0 25 bd 0a 79 4e be 94 91 a1 bd
       -0.01852017 -0.040435974 -0.2016336 -0.07889095
000040 0e a5 f9 3d d2 e9 21 3e a4 3f 16 bc 51 02 fe 3d
       0.12189685 0.15811852 -0.009170447 0.124027856
000050 4e 3c ab 3d 32 36 4c 3c 68 62 36 bd 23 23 ff 3b
       0.083611116 0.012464093 -0.04452744 0.007786171
000060 bc ee a6 be 7f 9e df 3c 4d 19 40 bd a9 d1 6b bd
       -0.32604015 0.027297257 -0.04689913 -0.057572994
000070 e5 df 72 bd c7 fb 1f be 50 91 54 bd a1 6e e9 3d
       -0.059295554 -0.15623389 -0.051896393 0.11398054
000080 19 0f fd 3c 54 33 90 be 81 88 28 3d 5b 4c 00 be
       0.030890988 -0.2816416 0.041145805 -0.12529127
000090 5d 43 d1 bb 0a bc 1d 3e 2f d3 39 3c 90 2d 5f ba
       -0.006386204 0.15403762 0.011341854 -0.0008513564
0000a0 d0 21 7d 3d d3 92 ca 3b 6a 8f 76 be 5f bf d5 3d
       0.061799824 0.0061820536 -0.24078146 0.10436892
0000b0 85 07 82 bd b6 5b cb 3d d3 4f fe 3d 8e f9 f8 3c
       -0.063490905 0.09929602 0.12417569 0.030392434

conv4.bias f4 [64]
000000 3b 7a 0c be 8d e3 1a 3e 17 28 c3 3d c8 b8 1f 3e
       -0.13718502 0.15125866 0.09529131 0.15597832
000010 74 53 1a 3e 1c 9a 3e be 28 b2 24 bc 8e c3 fd 3d
       0.15070897 -0.18613476 -0.010052241 0.12390815
000020 d0 b5 d5 3d 0b d2 1a 3e 50 a7 8a 3c 78 bd d6 3d
       0.104350686 0.15119188 0.016925484 0.10485357
000030 9c d2 c5 bd b9 64 4f bd 26 73 aa bc 2b 7e bf bd
       -0.09659311 -0.050633166 -0.02080686 -0.093502365
000040 ee 5f 58 3c 61 4b e4 bd 3f d7 95 3d a9 b8 9e 3d
       0.013206465 -0.1114719 0.073164456 0.07750065
000050 8c c9 5f bc 9d 43 84 3d ba b9 a2 bd e0 da 91 3d
       -0.013658892 0.06458209 -0.07945581 0.07121825
000060 1a f5 c0 bd f6 75 f6 be bb 13 c3 3d 65 18 36 3d
       -0.094217494 -0.48136872 0.09525248 0.04445686
000070 5e 46 da 3d 3a 9d 7f 3d 53 1b 10 3e 22 50 c5 3d
       0.10657953 0.062405802 0.14072923 0.09634425
000080 94 6c 15 3e 03 70 ae 3d 23 c1 dd 3d 83 59 1a be
       0.145922 0.08517458 0.108278535 -0.15073209
000090 b3 cb 03 3e 03 ae f9 bc 41 a1 b7 3d 0f 8c fe bd
       0.12870674 -0.030478483 0.089663036 -0.12429058
0000a0 f2 a1 8f 3d ea f3 82 3d 8e 1a 4e 3d 72 9b cf bd
       0.070133105 0.06394179 0.050318293 -0.10137071
0000b0 a7 ea 06 3e ad 1d 55 bd 8c d2 7b 3d c7 02 f4 3d
       0.1317545 -0.052030254 0.06148009 0.11914592
0000c0 5d 92 17 3e bf ec 7d 3d 5b 86 0b bc 61 37 a9 3d
       0.14801927 0.061993357 -0.00851592 0.08262516
0000d0 cf 20 5d 3d 12 5d 0b 3e 15 1a 09 3d a9 52 89 3d
       0.053986367 0.13609722 0.03347214 0.06705219
0000e0 c8 bd d8 3d a6 44 35 be bf 8f 86 bd 6b 96 17 bc
       0.10583073 -0.17701969 -0.06570386 -0.009252171
0000f0 36 79 36 be d6 c4 0b 3e 1b c4 8b 3d 9c 85 19 3e
       -0.17819676 0.13649306 0.068245135 0.14992374

conv5.bias f4 [64]
000000 4e 88 37 bd 49 2f e0 3d a6 98 d4 3d 45 3d 0c 3e
       -0.044807725 0.10946519 0.10380678 0.13695247
000010 15 a4 1f 3e 5a 61 9d 3d 3f 09 4d 3d 9e 3a 63 3d
       0.15589936 0.07684584 0.050057646 0.055475824
000020 6c 34 26 3d 08 41 b7 3d 6c 0b fc bc 8e 61 15 bd
       0.040577337 0.089479506 -0.030767165 -0.03646999
000030 e5 cc 97 3d 58 b5 2a bc 6f de 69 3d 8f f1 0b 3e
       0.074121274 -0.010419212 0.057096895 0.13666366
000040 e7 27 25 3d 87 d1 06 ba 79 6b 25 3e a1 18 c8 3c
       0.040321257 -0.00051429163 0.16154279 0.024425806
000050 9a 19 f6 3d 7c 0f 5f 3d 08 b2 8d 3d c0 d1 b2 bd
       0.12016602 0.054458126 0.069187224 -0.08731413
000060 e9 9d e7 3d ad 50 3f bc 82 ab e6 3d 53 fa 3f 3e
       0.11309416 -0.011676949 0.11263181 0.18747835
000070 8a 4c 14 3e df e4 08 3e de 60 1c 3d 1f 16 36 bd
       0.14482322 0.13368557 0.038178317 -0.04445469
000080 29 19 94 3d ed 2d 46 3d 95 f9 70 3c d9 46 07 3d
       0.072313614 0.048383642 0.0147079425 0.03302655
000090 9a 79 de 3c d9 24 cf 3d ff 5c 98 3d d9 42 7d 3d
       0.027157594 0.1011445 0.074396126 0.06183133
0000a0 d8 a2 1c bc 8d aa 8f 3c 76 34 ca 3d 20 6f 8f 3c
       -0.009560309 0.01753738 0.098732874 0.017509043
0000b0 f9 8c a7 bd 9f e9 82 bd 80 87 07 3e dc 16 0a 3e
       -0.08181185 -0.06392216 0.13235283 0.13485283
0000c0 f1 e1 a7 3d 51 80 08 3e ba b2 bf bc 46 0e 8e bd
       0.08197392 0.13330199 -0.023400653 -0.06936316
0000d0 57 56 a4 bd 2b ac f0 3d 5b 7b f4 3d 3f b0 b7 3d
       -0.080242805 0.117515884 0.11937591 0.08969163
0000e0 c0 04 29 3e e1 4e f2 3d ae a1 b4 3c 4f b0 33 bc
       0.16505718 0.11831451 0.022049751 -0.010967328
0000f0 0b 48 fb bb d2 de 09 be ef ed d3 3d 5b a6 0c bd
       -0.0076685003 -0.13463905 0.103481166 -0.034338336

fc2.bias f4 [50]
000000 32 83 fb 3d 4b 3d dc 3d 40 25 b7 3c 1a b0 0f 3d
       0.12280883 0.10753878 0.02235663 0.035080053
000010 cc 9c 90 be 65 79 aa 3e aa 33 9e bd c8 3e 51 3c
       -0.28244627 0.33295742 -0.07724698 0.012771316
000020 84 f5 e3 bd 51 7e 8b 3d d6 fb 47 3e ed 51 95 bb
       -0.11130813 0.06811202 0.19529662 -0.0045568855
000030 82 bf 2d bd 0c ac c1 3d fc 01 ca bd 07 14 a3 bc
       -0.042418964 0.094566435 -0.0986366 -0.01990701
000040 7d d9 69 bd 54 95 aa 3c 0f d0 14 be e5 dd f7 3d
       -0.05709218 0.020823158 -0.14532493 0.1210287
000050 f0 d1 9e bd 9d 8d 4b 3d c1 e6 94 bd 83 54 3f 3e
       -0.07754886 0.0496956 -0.07270575 0.18684582
000060 d8 5e 11 be ad df bb bd e1 d7 92 3e d6 2b e1 3c
       -0.14196336 -0.09173522 0.28680328 0.027486723
000070 44 10 2c bb 29 7b bd bd d4 1a aa bb e6 f2 1e 3c
       -0.0026254812 -0.092520066 -0.0051911864 0.009701466
000080 c1 4b 12 be e5 c9 95 bd 5d 25 f7 3e b8 48 40 3e
       -0.1428671 -0.07313899 0.48270693 0.1877774
000090 ff 26 b6 3c 94 2b 45 3e bb 22 8f 3e 21 ba 50 3d
       0.022235392 0.19254905 0.27956185 0.050958756
0000a0 2e 0d 1f 3e 99 f7 35 be 66 6e a7 be 0e bd 00 3e
       0.15532371 -0.17770232 -0.32701415 0.12572119
0000b0 b6 9b 37 be 2f 94 75 be f1 00 5f 3d c5 07 a8 bc
       -0.17930493 -0.23982309 0.054444257 -0.020511517
0000c0 6b e1 37 bc 4a 9e 1e 3c
       -0.011223177 0.009681294

fc3.bias f4 [10]
000000 ef 49 e9 bc e5 1d 8a 3e 2d bf 53 be 7e 46 4f 3e
       -0.028477637 0.26975933 -0.20678397 0.20241734
000010 88 01 d7 3c 46 76 64 bd ee 14 ac 3c 95 ff 2a be
       0.026245847 -0.055776857 0.021006074 -0.1669906
000020 d3 78 ee bd 15 93 27 be
       -0.11644139 -0.16364701

fc4.weight f4 [2, 10]
000000 c5 38 e8 bc ff 2f f6 3c e6 8d 30 3e 50 49 b3 3c
       -0.028347382 0.030052183 0.1724163 0.021885544
000010 9a 98 9a be 5e e9 1e 3e 64 72 cb bc aa 50 80 bd
       -0.3019455 0.1551871 -0.02483482 -0.062653854
000020 60 1a 61 be c6 cd 42 3e 91 a8 33 3d d7 70 a1 3d
       -0.21982718 0.19023809 0.04386193 0.078828506
000030 ab 6c ad bd 22 a6 3d be 82 a0 a7 3d 3a 47 ef 3d
       -0.084679924 -0.18520406 0.08184911 0.11683507
000040 33 89 a3 3e 26 fd 6f bd 85 37 cf bd 53 06 41 bd
       0.31940612 -0.05859103 -0.101180114 -0.047125172

fc4.bias f4 [2]
000000 f4 b7 0e bc 7a b2 a6 bc
       -0.00871085 -0.020348776
